…
 the dataset or simulation environment.\\n\\nThe dataset used for these experiments is available at https://tomcat.ivilab.org/\"}"}
{"id": "ZJWQfgXQb6", "page_num": 32, "content": "{\"primary_language\":\"en\",\"is_rotation_valid\":true,\"rotation_correction\":0,\"is_table\":true,\"is_diagram\":false,\"natural_text\":\"Table 4: CNN architecture for fNIRS data.\\n\\n| Layer       | Output shape | # of parameters |\\n|-------------|--------------|-----------------|\\n| Conv2d-1    | [-1, 16, ..., 22] | 160             |\\n| BatchNorm2d-2 | [-1, 16, ..., 22] | 32              |\\n| MaxPool2d-3 | [-1, 16, 2, 11]   | 0               |\\n| Conv2d-4    | [-1, 32, 2, 11]   | 12,832          |\\n| BatchNorm2d-5 | [-1, 32, 2, 11]   | 64              |\\n| MaxPool2d-6 | [-1, 32, 4, 4, 4] | 0               |\\n| Conv2d-7    | [-1, 64, 4, 4, 4] | 100,416         |\\n| BatchNorm2d-8 | [-1, 64, 4, 4, 4] | 128             |\\n| MaxPool2d-9 | [-1, 64, 8, 8]     | 0               |\\n| AdaptiveAvgPool2d-10 | [-1, 64, 1, 1] | 0               |\\n| Linear-11   | [-1, 128]       | 8,320           |\\n| Dropout-12  | [-1, 128]       | 0               |\\n| Linear-13   | [-1, 64]        | 8,256           |\\n| Linear-14   | [-1, 5]         | 325             |\\n\\nAfter extracting the data, you will find two folders named fnirs_10hz and eeg_500hz. Within each of these folders, there will be an experiment folder. Inside the experiment folder, you will find files named affective_individual_*.csv.\\n\\nFor new data collected, a complete description of the data collection process, such as instructions to annotators and methods for quality co
…
